best_model.pth (torch, 247394 bytes, 10 tensors)

lstm.weight_ih_l0 f4 [256, 41]
0.1677034 0.01768317 0.11573331 0.13975151 0.09310408 0.10984641 0.1658166 -0.038398545
0.1925786 0.16472077 0.09581649 0.062396422 0.13051042 0.14729819 0.09195988 0.13688895
0.04235017 0.0141521925 0.16133223 0.043301743 0.19135554 -0.052956007 0.16141962 0.003866365
0.1819812 0.027257375 0.1392687 -0.03886041 -0.029356092 0.08040201 -0.048705127 -0.037845094
0.11802077 0.15859957 0.12101658 0.17516512 0.13995233 -0.051811304 -0.042158384 0.10075718
-0.08224517 0.07665251 -0.114662744 -0.009145682 0.27238756 0.21596669 -0.11309703 0.058244165
0.08302417 0.2430851 0.01108508 0.032582525 0.22806719 0.054852143 0.18283847 0.2242444
0.1596629 0.19016999 0.032580804 0.17362742 0.1616874 0.1273136 0.13782902 0.21134774
0.059824232 0.10928647 0.20388874 0.2245134 0.07322703 0.091494136 0.2664967 0.03383483
0.08762689 0.04717363 0.14798628 0.21373673 0.10729399 0.12055484 0.15017818 0.059880223
0.21086937 0.11991285 0.09416131 0.074298285 0.051946692 -0.194031 0.17067976 0.0810319
-0.10757838 -0.12585497 0.04246275 -0.01496967 0.04106082 0.022046292 -0.06672961 -0.076950625
-0.0204957 -0.017199222 -0.11731949 0.0362003 0.006811778 -0.09308903 -0.008368331 0.035602998
-0.088584214 -0.06567942 -0.009286827 -0.048662867 -0.14885396 -0.10263868 -0.0058804797 -0.12666519
-0.09563662 -0.0827802 -0.01297457 -0.10159699 -0.121224135 -0.13266334 0.049361136 -0.17525601
-0.041809548 -0.15062037 0.15284932 0.11017624 0.038351648 -0.29405612 0.0024881496 0.010152778
-0.08522004 -0.015960034 0.008375303 0.09426225 0.17312603 -0.022089178 0.120053224 0.0782626
0.08928529 0.1544195 0.014262985 -0.036364883 0.0014964727 -0.026581706 0.02493106 -0.006779777
0.022091016 -0.06200673 0.016579013 0.071970135 -0.046615273 -0.055721406 0.00739608 0.10001548
0.05814781 -0.07173004 0.06224747 -0.011295676 -0.041250736 0.03249384 -0.051618755 0.123788685
-0.044764444 0.054047324 0.19248225 -0.19726612 0.036416035 0.022366807 -0.08009072 -0.21408804
0.017060183 0.023001969 0.0042027324 -0.078433305 0.006960145 0.019361753 -0.1217918 -0.11915446
0.118687384 0.029483635 0.0040357853 0.026744878 0.07613495 0.1136564 0.0033802073 0.022837576
-0.07016932 -0.04494601 -0.06200847 0.1370214 0.08400316 -0.025497377 -0.10141556 -0.12757643
0.07714899 -0.14659347 -0.061522253 -0.017915316 -0.040458955 0.05434812 -0.03950678 -0.015075265
0.029521434 -0.015743637 -0.098531686 -0.026314009 -0.06390121 -7.952316e-05 0.122281685 -0.09076931
0.05879142 0.10222019 -0.12007664 -0.00037584835 0.006435467 0.040219396 0.09218309 -0.027491618
0.0747593 0.072592124 0.056455925 -0.035752844 0.079592966 -0.00791682 0.09197276 0.0021352128
-0.02077521 -0.06744156 0.083760485 0.077982955 0.053848054 -0.046757232 0.10125038 0.110530786
0.1774026 0.042585205 0.019576784 0.04871184 0.014330123 -0.06208816 0.10022855 0.033318486
0.06067471 0.1971534 0.0705247 0.10031359 0.1436442 -0.04752014 0.4281413 -0.047642898
-0.2807733 0.13387504 0.38455185 0.02079168 -0.004345011 -0.048159365 -0.083821364 0.14352547
00000000: 71ba 2b3e 4cdc 903c 9605 ed3d 051b 0f3e
00000010: 5aad be3d 28f7 e03d d4cb 293e cb47 1dbd
00000020: 5333 453e 90ac 283e 703b c43d 6493 7f3d
00000030: 86a4 053e 56d5 163e 7655 bc3d 9e2c 0c3e
00000040: 5f77 2d3d 99de 673c 4734 253e 2b5d 313d
00000050: b5f2 433e 66e8 58bd 2f4b 253e d762 7d3b
00000060: 4859 3a3e dc4a df3c 749c 0e3e 182c 1fbd
00000070: 307c f0bc cfa9 a43d 077f 47bd 7503 1bbd
00000080: e0b4 f13d ed67 223e 8ad7 f73d 7c5e 333e
00000090: aa4f 0f3e 1738 54bd 45ae 2cbd c859 ce3d
000000a0: 2870 a8bd fefb 9c3d 4dd4 eabd c5d7 15bc
000000b0: 6276 8b3e 5f26 5d3e 6a9f e7bd 6f91 6e3d
000000c0: 9308 aa3d 4deb 783e 329e 353c 4175 053d
000000d0: 728a 693e a4ac 603d 023a 3b3e 53a0 653e
000000e0: ac7e 233e ecbb 423e 7373 053d 63cb 313e
000000f0: 6291 253e 7f5e 023e 0d23 0d3e 8b6b 583e
00000100: 410a 753d 96d1 df3d 36c8 503e d7e6 653e
00000110: 0ef8 953d 4761 bb3d 4172 883e 6496 0a3d
00000120: ba75 b33d 2339 413d b789 173e cddd 5a3e
00000130: f4bc db3d 75e5 f63d 4fc8 193e f744 753d
00000140: 24ee 573e de94 f53d a5d7 c03d b329 983d
00000150: 0ec6 543d 10b0 46be adc6 2e3e 0ef4 a53d
00000160: 0e52 dcbd 20e0 00be 6ced 2d3d 5943 75bc
00000170: 642f 283d 6d9a b43c 89a9 88bd 4a98 9dbd
00000180: 99e6 a7bc 62e5 8cbc 3345 f0bd c446 143d
00000190: 5635 df3b 76a5 bebd 531b 09bc 73d4 113d
000001a0: a46b b5bd ef82 86bd c727 18bc b752 47bd
000001b0: 2c6d 18be 3a34 d2bd 0ab1 c0bb 85b4 01be
000001c0: 22dd c3bd aa88 a9bd 4a93 54bc 1512 d0bd
000001d0: 5c44 f8bd e6d8 07be e72e 4a3d 5076 33be
000001e0: 7d40 2bbd 3a3c 1abe 8884 1c3e 15a4 e13d
000001f0: 9e16 1d3d 868e 96be 3910 233b d657 263c
00000200: d887 aebd 9ebe 82bc 9138 093c 910c c13d
00000210: f347 313e 5df4 b4bc 77de f53d 2448 a03d
00000220: 35db b63d 2520 1e3e 4caf 693c 58f3 14bd
00000230: 4b25 c43a e1c1 d9bc 393c cc3c e428 debb
00000240: 38f8 b43c c5fa 7dbd b6d0 873c 1465 933d
00000250: a8ef 3ebd 213c 64bd d15a f23b ead4 cc3d
00000260: 662c 6e3d 33e7 92bd 34f7 7e3d 8011 39bc
00000270: 88f6 28bd 4318 053d 306e 53bd ec84 fd3d
00000280: ec5a 37bd ba60 5d3d 111a 453e 2100 4abe
00000290: fb28 153d 983a b73c 9a06 a4bd e539 5bbe
000002a0: ccc1 8b3c a06e bc3c 13b7 893b a4a1 a0bd
000002b0: ee11 e43b 8a9c 9e3c fb6d f9bd 4107 f4bd
000002c0: 5f12 f33d aa87 f13c 9f3e 843b 1318 db3c
000002d0: a4ec 9b3d b0c4 e83d 7886 5d3b de15 bb3c
000002e0: efb4 8fbd 4f19 38bd 98fc 7dbd 564f 0c3e
000002f0: d909 ac3d e0df d0bc f6b2 cfbd 65a3 02be
00000300: 4a00 9e3d 991c 16be c2fe 7bbd 24c3 92bc
00000310: 4ab8 25bd 229c 5e3d ddd1 21bd 3ffe 76bc
00000320: efd6 f13c cdf8 80bc fbca c9bd 7a90 d7bc
00000330: a3de 82bd acc5 a6b8 d26e fa3d 43e5 b9bd
00000340: 46cf 703d d258 d13d beea f5bd 830d c5b9
00000350: 9ce0 d23b 18bd 243d 7dca bc3d 1a36 e1bc
00000360: 671b 993d 2eab 943d 543e 673d 9371 12bd
00000370: a301 a33d 8db5 01bc 375c bc3d edee 0b3b
00000380: c630 aabc cd1e 8abd 9e8a ab3d 87b5 9f3d
00000390: c78f 5c3d 8384 3fbd 5c5c cf3d f75d e23d
000003a0: 07a9 353e d36d 2e3d 7e5f a03c 1186 473d
000003b0: e4c8 6a3c 2850 7ebd a044 cd3d f778 083d
000003c0: 0b86 783d 95e2 493e 416f 903d 3671 cd3d
000003d0: 7717 133e 7aa4 42bd 5635 db3e 3325 43bd
000003e0: 85c1 8fbe 8a16 093e fbe3 c43e 5053 aa3c
000003f0: 9860 8ebb c142 45bd 89aa abbd 57f8 123e

lstm.weight_hh_l0 f4 [256, 64]
-0.02988036 0.014851809 0.0348178 -0.038776577 0.10436247 0.08779423 -0.076685846 -0.038978666
-0.11604734 -0.07646082 0.09828864 -0.008484587 0.11865598 -0.097582966 0.076232284 0.0502429
0.06614797 -0.07973902 -0.0466471 0.0056615174 -0.056433216 -0.07975891 -0.10289626 0.023359314
-0.018874347 -0.06457834 -0.012006521 0.11190224 -0.103652984 0.12421985 -0.01092273 -0.0136256665
0.060117707 0.0011910647 -0.057631463 -0.0019439757 -0.06136331 0.073262334 0.029756993 -0.09848319
0.064982206 0.025169075 0.12441838 -0.088357195 0.10735746 0.008231029 0.030888185 0.044909313
0.09170352 0.051118433 -0.04763475 0.1104864 0.07503925 -0.02928862 0.047213823 0.000999257
0.04394175 -0.096950516 -0.0013981909 -0.036223948 -0.08295439 0.089700386 -0.09493476 -0.0792132
-0.051416427 -0.07615113 -0.00015808642 -0.0015128702 -0.08586322 -0.045967788 0.022145495 0.10380921
0.09732136 0.053086802 -0.052382052 -0.014024541 0.071832106 0.06281312 -0.021060064 0.10992351
-0.08772147 -0.042828903 -0.0014359951 0.11970182 0.017167851 -0.067230076 -0.08014031 0.051264644
0.054064214 -0.00024914742 -0.11645506 0.10199496 0.11649172 -0.11508858 0.08695933 0.107740164
-0.09634349 -0.09527247 -0.11754952 -0.106556684 0.03306611 0.05082564 -0.10678424 -0.053418517
-0.025932834 0.104458004 -0.12020449 0.10082658 -0.058990404 0.08189763 -0.11359203 -0.011326075
0.060439244 0.111127466 -0.016168892 0.028363332 -0.06480251 -0.10880554 0.054448888 0.016357318
0.02769287 0.10840255 -0.10923675 -0.101484194 0.09655626 0.12376459 -0.039877877 -0.00428617
-0.06264323 0.030457154 0.043077797 0.06030628 0.06495793 0.11320907 -0.027009964 -0.063350126
-0.0628255 -0.06276235 -0.094394326 0.10323843 0.044679746 0.11045405 -0.02371332 -0.049809232
0.03383386 -0.12345298 -0.014908522 -0.03081128 -0.08960673 0.05472924 0.11010863 -0.09557079
0.06634359 -0.009509891 0.05480002 0.08380014 0.07106741 -0.055457175 0.087004036 -0.04765539
0.10633455 0.08065574 0.043418646 0.088783726 -0.0914018 0.057420522 -0.099290416 -0.056711093
-0.07073003 -0.118607774 0.006853357 -0.04218477 0.07827076 -0.11819205 -0.10752036 -0.109648064
0.08408271 -0.11329503 0.08556436 -0.0003912151 0.004597634 -0.0002745241 0.103499174 -0.047806025
0.004748404 -0.047754228 -0.07161257 -0.0020868927 0.08514513 -0.037480205 -0.044975832 -0.08182028
0.03820859 -0.032939136 -0.049646586 -0.0048862696 0.018246487 0.02580443 -0.06482075 -0.015311286
0.09804046 0.030133873 -0.005016431 0.06283511 -0.05310458 0.055108204 0.1222665 -0.027873978
0.0032816827 0.11209881 0.055078223 -0.038394526 -0.036212444 0.08951387 -0.11582072 0.066321045
0.061632767 -0.061672926 -0.022539675 -0.0066777617 -0.05431293 -0.06968276 0.021086633 0.0977035
-0.09922655 -0.03406483 -0.07356936 -0.04062809 0.05811666 -0.06757896 -0.0001847893 0.09158552
0.021605715 0.023741528 0.04756847 0.040007636 -0.030824766 -0.066674575 0.049940392 -0.08533235
-0.09323494 0.062186822 0.061348528 -0.054512277 0.015927225 0.08299862 0.08255702 -0.053221494
0.106893435 0.03607595 -0.03927438 0.0038118958 -0.058295503 -0.10522373 -0.061545372 -0.1214073
00000000: a8c7 f4bc 0055 733c 1c9d 0e3d 30d4 1ebd
00000010: febb d53d 76cd b33d 780d 9dbd 18a8 1fbd
00000020: 3aaa edbd 7e97 9cbd 8e4b c93d f002 0bbc
00000030: e801 f33d 94d9 c7bd ac1f 9c3d 80cb 4d3d
00000040: 9678 873d 364e a3bd 0811 3fbd 4084 b93b
00000050: 8426 67bd a458 a3bd 46bb d2bd 085c bf3c
00000060: 609e 9abc a641 84bd 00b7 44bc 002d e53d
00000070: 0448 d4bd fa66 fe3d 40f5 32bc 303e 5fbc
00000080: fc3d 763d 801d 9c3a f80e 6cbd 00cd feba
00000090: 1858 7bbd 900a 963d f0c4 f33c 8eb1 c9bd
000000a0: 6415 853d 602f ce3c 10cf fe3d 9ef4 b4bd
000000b0: 3ade db3d 70db 063c 3809 fd3c d4f2 373d
000000c0: 0ecf bb3d 9061 513d a81c 43bd b246 e23d
000000d0: 2eae 993d b0ee efbc 4863 413d 80f9 823a
000000e0: 44fc 333d fe8d c6bd 8043 b7ba 905f 14bd
000000f0: fee3 a9bd d6b4 b73d 286d c2bd 883a a2bd
00000100: 089a 52bd 20f5 9bbd 00c4 25b9 804b c6ba
00000110: 0ed9 afbd b848 3cbd 786a b53c ec99 d43d
00000120: 6c50 c73d 8c71 593d 908e 56bd 30c7 65bc
00000130: b61c 933d 2aa4 803d 2886 acbc 941f e13d
00000140: 50a7 b3bd 5c6d 2fbd 0038 bcba 3a26 f53d
00000150: 98a3 8c3c ecaf 89bd 9a20 a4bd e0fa 513d
00000160: 7072 5d3d 00a0 82b9 fe7f eebd bce2 d03d
00000170: 3693 ee3d 90b3 ebbd bc17 b23d e0a6 dc3d
00000180: bc4f c5bd 361e c3bd cebd f0bd 643a dabd
00000190: 5470 073d 8c2e 503d b2b1 dabd 60cd 5abd
000001a0: 1871 d4bc 14ee d53d c62d f6bd 2a7e ce3d
000001b0: ec9f 71bd f2b9 a73d f0a2 e8bd 0091 39bc
000001c0: 248f 773d cc96 e33d a074 84bc 385a e83c
000001d0: 2eb7 84bd 70d5 debd cc05 5f3d c8ff 853c
000001e0: 28dc e23c 2802 de3d 84b7 dfbd f2d6 cfbd
000001f0: 4abf c53d 4a78 fd3d fc56 23bd 0073 8cbb
00000200: 184b 80bd 4881 f93c 5872 303d b803 773d
00000210: aa08 853d 28da e73d 0044 ddbc b6bd 81bd
00000220: a8aa 80bd 8c89 80bd d051 c1bd ac6e d33d
00000230: 1c02 373d bc35 e23d 7042 c2bc c404 4cbd
00000240: 6095 0a3d ead4 fcbd e042 74bc f067 fcbc
00000250: bc83 b7bd c42b 603d a280 e13d 9eba c3bd
00000260: 26df 873d 60cf 1bbc fc75 603d 689f ab3d
00000270: ca8b 913d 1027 63bd 2c2f b23d 4c32 43bd
00000280: eec5 d93d d62e a53d c0d7 313d 3ed4 b53d
00000290: de30 bbbd c831 6b3d c658 cbbd e449 68bd
000002a0: e8da 90bd a2e8 f2bd 2092 e03b f0c9 2cbd
000002b0: 6c4c a03d ac0e f2bd a233 dcbd 2a8f e0bd
000002c0: 8e33 ac3d 3a07 e8bd 5e3c af3d 001c cdb9
000002d0: c0a7 963b 00ee 8fb9 60f7 d33d 40d0 43bd
000002e0: 8098 9b3b f099 43bd 9ca9 92bd 40c4 08bb
000002f0: 9260 ae3d d884 19bd 9438 38bd 6491 a7bd
00000300: 9c80 1c3d 30eb 06bd 385a 4bbd 001d a0bb
00000310: a879 953c d063 d33c bec0 84bd 30dc 7abc
00000320: 70c9 c83d 50db f63c e060 a4bb b2af 803d
00000330: 3084 59bd 24b9 613d dc66 fa3d f857 e4bc
00000340: 8011 573b 1094 e53d b499 613d 9443 1dbd
00000350: 8053 14bd 0c53 b73d 6a33 edbd 54d3 873d
00000360: a472 7c3d c09c 7cbd 20a5 b8bc 20d1 dabb
00000370: 3c77 5ebd d6b5 8ebd e0bd ac3c c618 c83d
00000380: 4a37 cbbd 9087 0bbd 88ab 96bd a469 26bd
00000390: bc0b 6e3d d666 8abd 00c4 41b9 3091 bb3d
000003a0: 78fe b03c 987d c23c 28d7 423d 0cdf 233d
000003b0: 3884 fcbc ae8c 88bd 4c8e 4c3d bac2 aebd
000003c0: f6f1 bebd 9cb7 7e3d 9848 7b3d 4448 5fbd
000003d0: d079 823c 2efb a93d a813 a93d c8fe 59bd
000003e0: f2ea da3d 60c4 133d 2cde 20bd 00d1 793b
000003f0: 44c7 6ebd 8a7f d7bd 0017 7cbd 64a4 f8bd

lstm.bias_ih_l0 f4 [256]
0.012721689 0.27549922 0.038679894 0.1603609 -0.10699582 0.14985064 -0.0046186545 0.043859642
0.19858724 0.1150642 0.138175 0.10958698 0.16691022 -0.059647664 0.18613468 0.21120393
0.2899618 0.112400524 0.010018714 -0.009194935 0.21196009 0.14116584 0.16386914 0.108541906
0.11070754 0.013747285 0.13834721 0.24347585 0.24273422 0.13350596 -0.04624435 0.08741027
0.092711374 0.0020107948 0.2119009 0.27042985 0.20203978 0.10129596 0.0863302 0.10224082
0.110383354 0.017574616 0.010383544 0.07568507 -0.038250588 -0.06530883 0.08035191 0.28887635
0.19451699 0.099442236 0.16227701 0.14978741 0.049738184 0.13970165 0.098664604 0.1608438
0.033925608 0.055400454 0.085902624 0.09532676 0.14295599 0.016249355 0.04707836 0.10822936
-0.08875206 0.07571356 0.046640053 0.037329867 0.1062223 -0.05294454 0.09432697 0.07251026
0.035716236 0.020600662 0.022739977 0.078588516 -0.0036734343 -0.064289674 -0.06670211 -0.076965615
0.08654785 0.036026224 -0.077601284 -0.0052483827 -0.0051196814 -0.10580374 0.019298881 -0.08641431
0.07218242 -0.072685 -0.029697448 0.035235554 -0.11104417 -0.04160446 0.045278013 0.12310268
0.079258904 0.064536095 0.06475322 0.0505798 0.09971005 -0.04087466 0.009004876 0.06259468
-0.005775705 -0.07263519 0.03785011 -0.06857273 -0.105329484 -0.03159392 -0.019650608 -0.020514697
0.07882103 0.115018874 0.06020294 0.01730381 -0.122355565 0.04968624 -0.11064859 -0.11550355
-0.08026591 -0.070815295 -0.0051413924 0.03924656 0.06870879 -0.017096117 0.029184118 0.05811754
-0.024805421 0.0009102019 0.06295004 0.1678294 -0.059651297 0.071227156 0.093785 0.090749554
-0.025918366 -0.1583438 -0.036954746 -0.010538009 -0.1716596 -0.07085784 0.20979631 -0.0031966558
0.08473763 -0.022755302 -0.20914914 -0.011997367 -0.038272563 -0.19507901 -0.02077089 0.23663123
0.015136827 -0.10449699 -0.052729722 -0.2019359 0.116068296 0.14876868 -0.082116455 0.10112786
0.21826664 0.030139102 -0.18719119 -0.030213334 0.22441308 0.00073030393 -0.19034058 -0.10613759
0.19798297 -0.19270056 -0.004672188 0.00855939 0.16141498 -0.14758743 -0.20265478 0.11369727
0.2177363 -0.16677505 -0.01032179 0.15586472 0.16315639 0.24548641 0.19189085 0.044547256
0.01505196 -0.10726581 0.18916355 -0.12024571 -0.12689324 -0.07024272 -0.23510814 0.10145315
0.020767244 0.15046304 0.095410034 0.09781405 0.12593897 -0.07164865 0.12033799 0.17928994
0.11237043 0.093953885 0.10747905 0.018124528 0.19432566 0.0035438035 0.13160597 0.27578834
0.035199184 0.11348344 0.12939212 -0.06298848 -0.0733685 0.2109063 -0.0022143223 0.15080732
0.07324577 0.13872778 0.14747593 0.11571702 0.13945383 0.06119342 -0.08628955 0.01672371
0.21355957 0.006432232 0.22888637 0.13595799 0.20285407 0.12839721 0.047918577 0.22993052
0.15404977 0.012648071 -0.021767858 0.019492796 0.0066192923 -0.05962721 -0.026463237 0.12768528
0.09086971 0.19890624 0.07106691 0.25617397 0.0335673 0.118648976 0.11529186 0.08633119
0.09957012 0.2704082 0.17955616 -0.008516188 0.039825987 0.096392035 0.030094992 0.22946516
00000000: a26e 503c 3c0e 8d3e cf6e 1e3d a635 243e
00000010: a020 dbbd 7272 193e 1558 97bb 2ba6 333d
00000020: 745a 4b3e c7a6 eb3d bf7d 0d3e 236f e03d
00000030: 83ea 2a3e 1c51 74bd 179a 3e3e d845 583e
00000040: e075 943e 3f32 e63d 8825 243c 5aa6 16bc
00000050: 110c 593e c78d 103e 50cd 273e 384b de3d
00000060: a2ba e23d 4b3c 613c e4aa 0d3e bc51 793e
00000070: 528f 783e c9b5 083e b76a 3dbd 2804 b33d
00000080: 76df bd3d 8ac7 033b 8dfc 583e c875 8a3e
00000090: 84e3 4e3e 4274 cf3d e3cd b03d a363 d13d
000000a0: ab10 e23d a4f8 8f3c bd1f 2a3c c600 9b3d
000000b0: a6ac 1cbd a3c0 85bd 8b8f a43d 9ae7 933e
000000c0: 762f 473e 5fa8 cb3d f22b 263e df61 193e
000000d0: 44ba 4b3d f30d 0f3e ab10 ca3d 3db4 243e
000000e0: 94f5 0a3d 96eb 623d b7ed af3d ad3a c33d
000000f0: 0e63 123e 5e1d 853c 3dd5 403d 5ba7 dd3d
00000100: a4c3 b5bd b60f 9b3d a409 3f3d 34e7 183d
00000110: 148b d93d 60dc 58bd 802e c13d 4280 943d
00000120: 304b 123d b8c2 a83c 3049 ba3c 04f3 a03d
00000130: 00be 70bb 4eaa 83bd 1e9b 88bd 26a0 9dbd
00000140: 0040 b13d 3c90 133d 6ced 9ebd a0fa abbb
00000150: 00c3 a7bb a2af d8bd b018 9e3c fcf9 b0bd
00000160: 60d4 933d e0db 94bd 1048 f3bc 2853 103d
00000170: 206b e3bd 7069 2abd 7075 393d 421d fc3d
00000180: 7e52 a23d 802b 843d 569d 843d c42c 4f3d
00000190: c834 cc3d 306c 27bd 3089 133c a431 803d
000001a0: 2042 bdbb c2c1 94bd b808 1b3d dc6f 8cbd
000001b0: fcb6 d7bd a068 01bd 50fa a0bc 700e a8bc
000001c0: ec6c a13d 048f eb3d 5c97 763d b8c0 8d3c
000001d0: 8e95 fabd cc83 4b3d ba9b e2bd 208d ecbd
000001e0: 7462 a4bd 9c07 91bd 2079 a8bb 00c1 203d
000001f0: 32b7 8c3d 280d 8cbc 8813 ef3c a80c 6e3d
00000200: bd34 cbbc 9e9a 6e3a f3eb 803d 78db 2b3e
00000210: eb54 74bd 8bdf 913d 5a12 c03d e7da b93d
00000220: c152 d4bc e124 22be dc5d 17bd 9da7 2cbc
00000230: 89c7 2fbe ea1d 91bd d8d4 563e fc7e 51bb
00000240: ec8a ad3d 5469 babc 312b 56be 9b90 44bc
00000250: b1c3 1cbd cbc2 47be b727 aabc 754f 723e
00000260: 7400 783c 8502 d6bd 1ffb 57bd 49c8 4ebe
00000270: 37b5 ed3d d156 183e ac2c a8bd 201c cf3d
00000280: 4a81 5f3e 47e6 f63c 0caf 3fbe f481 f7bc
00000290: 8bcc 653e de71 3f3a a4e8 42be aa5e d9bd
000002a0: 0cbc 4a3e 4c53 45be 2719 99bb af3c 0c3c
000002b0: f849 253e 2921 17be bc84 4fbe 1dda e83d
000002c0: 44f6 5e3e 14c7 2abe ba1c 29bc 009b 1f3e
000002d0: 7812 273e ca60 7b3e 097f 443e 2f77 363d
000002e0: 7f9c 763c 2dae dbbd 17b4 413e 6243 f6bd
000002f0: 4df0 01be 6adb 8fbd 30c0 70be abc6 cf3d
00000300: 1120 aa3c fc12 1a3e 5666 c33d bc52 c83d
00000310: 25f6 003e 87bc 92bd c473 f63d c897 373e
00000320: 7822 e63d e56a c03d fa1d dc3d e479 943c
00000330: 4efd 463e 283f 683b b7c3 063e 2134 8d3e
00000340: 052d 103d 016a e83d 5e7f 043e 1b00 81bd
00000350: 3942 96bd d2f7 573e 2a1e 11bb 3c6d 1a3e
00000360: e101 963d a80e 0e3e ee03 173e 0cfd ec3d
00000370: fccc 0e3e f4a5 7a3d 93b8 b0bd 2900 893c
00000380: 5caf 5a3e 79c5 d23b 3061 6a3e 9238 0b3e
00000390: fab8 4f3e 8f7a 033e 4546 443d e872 6b3e
000003a0: 39bf 1d3e db39 4f3c 8252 b2bc 5baf 9f3c
000003b0: a6e6 d83b a93b 74bd 6ec9 d8bc eebf 023e
000003c0: e619 ba3d 14ae 4b3e 878b 913d 3c29 833e
000003d0: dd7d 093d 3cfe f23d 241e ec3d 68ce b03d
000003e0: 6beb cb3d f272 8a3e 92dd 373e 7b87 0bbc
000003f0: 9320 233d 3069 c53d c689 f63c eaf8 6a3e

lstm.bias_hh_l0 f4 [256]
0.062630035 0.24748468 -0.067729965 0.09553497 0.043723814 0.12948999 -0.043705266 0.14406869
0.14275901 0.08380617 0.18554103 0.17910324 0.1352591 -0.013129531 0.21494292 0.16737704
0.060225446 0.09568601 0.22325025 -0.07344988 0.2420562 0.1411293 0.016834108 0.100231625
0.07424274 0.02908073 0.18941553 0.04837828 0.10666261 0.14964475 0.041375574 0.06294608
0.18714665 0.18627955 0.2836146 0.2698512 0.23464864 0.079237744 0.14116254 0.24088587
0.085001774 -0.03263749 -0.021740124 0.09153266 0.16337422 -0.06997542 0.21608372 0.2151006
0.090063766 0.29363558 0.003962129 0.19540825 0.07837289 0.1304803 -0.12188229 0.019686658
0.013991904 0.14913067 -0.0046480526 0.0061761853 0.27428645 0.09626771 0.16327947 0.24001126
0.0012434423 0.04910618 0.0841361 -0.030317843 0.030582175 -0.068434075 -0.021307498 -0.102562636
-0.05590342 0.037849247 0.06651588 0.12059866 -0.11141096 -0.026653156 0.084226534 -0.012794867
-0.07183431 -0.07251944 -0.09314266 -0.07195383 -0.093381256 -0.010725409 0.08820498 -0.06049958
-0.03863871 0.0830044 0.07062133 0.0854529 0.1166476 -0.0056147277 0.04536888 0.097529605
0.040143058 -0.044652075 -0.1213219 0.032821745 0.10458925 0.12087613 -0.045456916 0.10072264
-0.11139183 -0.025983274 0.03221464 0.11978792 0.092231885 0.122473 0.090230644 -0.022959396
-0.039795876 0.090447515 -0.1161747 0.10395366 0.01831168 -0.08489545 0.08421938 -0.054276228
0.03861223 -0.098168835 -0.114403024 0.10780847 -0.07904175 -0.04393266 -0.085269436 0.0868614
0.1200975 -0.10452996 -0.069216095 0.109058164 0.035697635 0.011781871 0.12987155 0.19163992
-0.047846317 -0.095771074 -0.20843433 -0.23224156 -0.073723316 0.118056804 0.15094881 0.18956271
0.029363621 -0.026951224 -0.043257393 0.10240288 -0.052162442 -0.20173326 -0.0755449 0.03622994
0.19065706 -0.16735455 -0.03819855 -0.16693887 0.15178347 -5.4208784e-05 -0.08536725 0.15666948
0.15503561 0.09592541 -0.13758817 -0.16260248 0.09008112 -0.2158578 -0.22518161 -0.046541184
0.056908876 -0.17613707 0.17040044 -0.1155868 0.1685791 -0.115211934 -0.0022096431 0.10510854
0.15149073 -0.08772513 -0.17960614 0.18399107 0.11572855 0.0069251657 0.079275586 0.08197955
-0.0128794145 -0.18762174 0.18479533 0.013826881 -0.21960308 -0.06943475 -0.102388605 0.0007418951
0.11066901 0.18152013 0.057511058 0.025312556 0.026916204 0.10822143 0.0965819 0.16353999
0.023046201 0.07979262 0.22838743 0.12783808 0.32831252 0.073273875 0.1594301 0.11838839
0.22547072 0.089146934 0.26535657 0.015705794 0.15175943 0.062457226 0.18062697 0.09958409
0.27245164 0.08543507 0.199215 0.13766196 0.22420757 0.067204684 -0.18996842 0.21242665
0.089311734 0.018414201 0.19399674 0.08011713 0.17806482 0.15420057 0.0786777 0.23989594
0.15641594 -0.028009752 0.07679799 0.0077650235 0.02494116 -0.10676839 0.19180556 0.1529421
0.08834654 0.1649252 0.20668808 0.21857885 0.10007622 0.2534143 -0.024470072 0.21460281
0.15626667 0.23797332 0.24288827 -0.022520328 0.04477451 -0.04028571 -0.008880168 0.1528223
00000000: 2d44 803d a06c 7d3e 02b6 8abd d7a7 c33d
00000010: be17 333d 0699 043e 4b04 33bd be86 133e
00000020: 6b2f 123e 92a2 ab3d 78fe 3d3e d766 373e
00000030: 5d81 0a3e 3f1d 57bc ff19 5c3e e364 2b3e
00000040: f5ae 763d 07f7 c33d b79b 643e e46c 96bd
00000050: 95dd 773e 3384 103e afe7 893c 3d46 cd3d
00000060: 940c 983d b63a ee3c 25f6 413e 4e28 463d
00000070: ed71 da3d 793c 193e 6f79 293d e0e9 803d
00000080: 5fa3 3f3e 11c0 3e3e ef35 913e f029 8a3e
00000090: bc47 703e 6647 a23d ea8c 103e c9aa 763e
000000a0: 6915 ae3d e4ae 05bd 5818 b2bc 7a75 bb3d
000000b0: 924b 273e 464f 8fbd 0d45 5d3e 5543 5c3e
000000c0: 5a73 b83d 6757 963e bfd4 813b 1a19 483e
000000d0: f781 a03d a19c 053e 6c9d f9bd ea45 a13c
000000e0: 4d3e 653c b6b5 183e b14e 98bb 9961 ca3b
000000f0: 466f 8c3e 0128 c53d bc32 273e 83c5 753e
00000100: 00fb a23a 9023 493d 8c4f ac3d 205d f8bc
00000110: 7887 fa3c 2a27 8cbd 108d aebc 5c0c d2bd
00000120: fcfa 64bd d007 1b3d 7a39 883d 6efc f63d
00000130: 6e2b e4bd b857 dabc f67e ac3d 90a1 51bc
00000140: de1d 93bd 1285 94bd 94c1 bebd 885c 93bd
00000150: ac3e bfbd a0b9 2fbc d0a4 b43d 68ce 77bd
00000160: a043 1ebd 36fe a93d eaa1 903d ee01 af3d
00000170: f0e4 ee3d c0fb b7bb b8d4 393d 9abd c73d
00000180: 0c6d 243d 18e5 36bd 9e77 f8bd 1870 063d
00000190: e432 d63d e88d f73d 0831 3abd ac47 ce3d
000001a0: 6621 e4bd e0da d4bc 80f3 033d 5e53 f53d
000001b0: 12e4 bc3d 20d3 fa3d d8ca b83d 5815 bcbc
000001c0: 0001 23bd 8c3c b93d 00ed edbd a8e5 d43d
000001d0: 6002 963c aadd adbd 367b ac3d c050 5ebd
000001e0: dc27 1e3d be0c c9bd 224c eabd b0ca dc3d
000001f0: a4e0 a1bd bcf2 33bd bea1 aebd 64e4 b13d
00000200: aef5 f53d ce13 d6bd 2bc1 8dbd e359 df3d
00000210: af37 123d c008 413c 0cfd 043e 413d 443e
00000220: 80fa 43bd a023 c4bd cf6f 55be bbd0 6dbe
00000230: 40fc 96bd c4c7 f13d 5392 1a3e ba1c 423e
00000240: fa8b f03c d0c8 dcbc aa2e 31bd 9ab8 d13d
00000250: 49a8 55bd 2a93 4ebe 49b7 9abd d865 143d
00000260: 9b3b 433e fe5e 2bbe 1576 1cbd 06f2 2abe
00000270: 206d 1b3e 3d5e 63b8 06d5 aebd f76d 203e
00000280: a8c1 1e3e 8b74 c43d eae3 0cbe 4481 26be
00000290: 737c b83d d409 5dbe 0296 66be f8a1 3ebd
000002a0: 4819 693d 475d 34be 747d 2e3e c6b8 ecbd
000002b0: 00a0 2c3e 3cf4 ebbd a9cf 10bb 2543 d73d
000002c0: 6320 1b3e 3ca9 b3bd acea 37be 2868 3c3e
000002d0: 1703 ed3d 80ec e23b 3d5b a23d e5e4 a73d
000002e0: 2e04 53bc ea1f 40be fd3a 3d3e 248a 623c
000002f0: a1df 60be ce33 8ebd 1eb1 d1bd bd7b 423a
00000300: 6fa6 e23d 6ae0 393e b790 6b3d 475c cf3c
00000310: 5f7f dc3c 32a3 dd3d bbcc c53d 0777 273e
00000320: 63cb bc3c 506a a33d 65de 693e fce7 023e
00000330: 9418 a83e 9d10 963d a541 233e 9d75 f23d
00000340: cce1 663e ab92 b63d d1dc 873e 70a9 803c
00000350: d366 1b3e 26d3 7f3d 47f6 383e bef2 cb3d
00000360: c87e 8b3e 95f8 ae3d 04ff 4b3e 42f7 0c3e
00000370: ab96 653e 9ca2 893d 1587 42be 5f86 593e
00000380: 12e9 b63d 61d9 963c 15a7 463e 7314 a43d
00000390: a056 363e c1e6 1d3e c621 a13d 48a7 753e
000003a0: 802b 203e b574 e5bc 4448 9d3d bd71 fe3b
000003b0: 6751 cc3c 63a9 dabd ad68 443e db9c 1c3e
000003c0: 08ef b43d 27e2 283e 0aa6 533e 22d3 5f3e
000003d0: c3f4 cc3d 85bf 813e 7675 c8bc d7c0 5b3e
000003e0: 5f04 203e 47af 733e b4b7 783e 8d7c b8bc
000003f0: 7a65 373d a102 25bd 207e 11bc 737d 1c3e

lstm.weight_ih_l1 f4 [256, 64]
-0.08893247 -0.31751114 -0.063660026 0.1890741 -0.27608067 -0.25392687 0.072596684 -0.024867037
0.12036779 -0.23217809 0.06792944 0.065824345 -0.13698569 -0.2076421 0.6430765 0.055257767
0.47398835 -0.06283713 -0.14625384 0.24559017 -0.14468089 0.1300371 -0.18366179 0.29025528
0.0014505505 -0.23781444 0.02970601 -0.1763896 0.028260117 0.047429074 -0.21952042 0.15067156
0.37021375 -0.13336734 -0.2709411 -0.04799901 -0.030506555 -0.15231292 -0.27797818 -0.26202282
-0.033699404 -0.0551749 0.15383792 0.13778694 0.044080373 0.096833006 -0.051628947 0.14464828
0.07304793 0.08817239 0.13224062 0.0013675636 -0.14629439 0.2439436 0.124144495 0.11807248
-0.2720239 -0.3331989 -0.13819933 0.15335394 -0.061884183 -0.24249594 0.1387569 0.089592464
0.1559712 -0.07075969 -0.15770939 -0.116749994 -0.22988375 -0.033080738 0.27895278 0.2482672
-0.18113153 -0.12866658 -0.08276389 -0.26168036 -0.11005737 0.27375147 0.30504543 0.04724435
0.15995823 -0.13729219 -0.13788144 -0.12906183 0.11422578 -0.3078465 -0.145734 0.13699637
0.11906935 -0.18708538 -0.049998146 -0.079477035 0.09031837 -0.045634456 0.2870608 0.25534603
0.2098468 -0.08283402 -0.14532402 -0.24889892 0.15556164 -0.3139688 -0.22940813 -0.06361065
0.26117724 0.11580708 -0.082537815 -0.12603605 0.16281138 -0.17782533 -0.1106216 0.2118528
0.20200734 -0.22515279 -0.07951749 0.2323903 -0.05809417 0.19084324 0.1639137 0.048355356
-0.13335852 -0.045426562 0.028318306 0.11524084 -0.1267321 -0.08619114 0.11263326 0.042191673
0.013963316 -0.11155172 -0.39482072 -0.009020063 0.044214685 -0.43393174 0.046687737 0.028961943
0.12012826 -0.08861425 -0.014034149 0.13981882 -0.11171119 0.023122868 0.6794045 0.18123549
0.6184289 0.018176649 -0.12487845 0.16102724 0.1723993 0.18104778 -0.21041495 0.13195844
0.15641859 -0.10332748 0.15266284 -0.24533147 0.010603625 0.052196614 0.072339006 0.16479689
0.45793268 -0.19936533 -0.46976814 -0.029518737 0.08955094 -0.21340261 -0.3591458 -0.33008468
0.11692499 -0.1405218 0.10349906 0.06276248 -0.122414246 0.21289985 0.09300997 0.17463729
0.025374228 0.05559465 0.21121559 0.032083593 -0.12516955 0.15193243 0.53689456 0.3220172
-0.3206538 -0.29000986 -0.13039348 0.31383088 -0.13204125 -0.4958989 0.42215094 0.022626951
0.035695713 -0.07962521 -0.23207006 0.10593909 -0.056499664 -0.29108405 0.056739807 -0.036969844
0.081319764 -0.09519732 0.06461082 0.08400992 -0.10781682 -0.007469737 0.6321463 0.25447497
0.47933114 -0.22269234 -0.12153913 -0.048680957 -0.031486787 0.1246103 -0.13277707 0.04819386
0.102018535 -0.27076775 -0.0968583 -0.15114817 -0.029763773 -0.05276193 -0.075590454 0.30631447
0.15218243 -0.15201 -0.23398991 -0.07445926 0.06706491 -0.2667923 -0.22910307 -0.3514018
0.15919487 -0.07840189 0.16129753 -0.01962617 0.19555727 0.08933412 -0.043155372 0.28487623
0.0013850722 -0.047846194 0.24832422 0.032044552 -0.09936813 0.14646107 0.33809644 0.098255165
-0.14329629 -0.19538149 -0.17219138 0.14897324 -0.12783748 -0.1390307 0.13101026 0.07003928
00000000: 3a22 b6bd d290 a2be 3060 82bd a49c 413e
00000010: 725a 8dbe b402 82be 92ad 943d f5b5 cbbc
00000020: 6383 f63d 18c0 6dbe 971e 8b3d eace 863d
00000030: fa45 0cbe 21a0 54be a9a0 243f f855 623d
00000040: 9aae f23e c1b0 80bd 91c3 15be fd7b 7b3e
00000050: 3a27 14be 7228 053e d611 3cbe 579c 943e
00000060: 6620 be3a a185 73be 055a f33c 7a9f 34be
00000070: c381 e73c fd44 423d f6c9 60be a549 1a3e
00000080: a88c bd3e 7391 08be cbb8 8abe 9c9a 44bd
00000090: e2e8 f9bc ebf7 1bbe 2853 8ebe db27 86be
000000a0: 6308 0abd 13ff 61bd b087 1d3e 0518 0d3e
000000b0: 9f8d 343d 6250 c63d e078 53bd ae1e 143e
000000c0: 279a 953d ba93 b43d 166a 073e d23f b33a
000000d0: 32ce 15be 5acc 793e 783f fe3d fccf f13d
000000e0: b746 8bbe 0c99 aabe 2084 0dbe d108 1d3e
000000f0: 457a 7dbd db50 78be 4a16 0e3e 417c b73d
00000100: eab6 1f3e 75ea 90bd 927e 21be 9f1a efbd
00000110: a566 6bbe ab7f 07bd e6d2 8e3e c239 7e3e
00000120: 8b7a 39be 2cc1 03be 1d80 a9bd f8fa 85be
00000130: c265 e1bd 2729 8c3e ea2e 9c3e 4b83 413d
00000140: 17cc 233e 5396 0cbe cb30 0dbe c928 04be
00000150: 35ef e93d 0e9e 9dbe 4b3b 15be c748 0c3e
00000160: a2da f33d 4f93 3fbe dbca 4cbd dbc4 a2bd
00000170: d6f8 b83d 32eb 3abd a2f9 923e b7bc 823e
00000180: 14e2 563e e2a4 a9bd d2cf 14be 5cdf 7ebe
00000190: 8d4b 1f3e 85c0 a0be f7e9 6abe 4d46 82bd
000001a0: 06b9 853e 432c ed3d 9609 a9bd 980f 01be
000001b0: 07b8 263e d817 36be 948d e2bd f1ef 583e
000001c0: 03db 4e3e 748e 66be 11da a2bd b9f7 6d3e
000001d0: 27f4 6dbd 696c 433e fed8 273e 4410 463d
000001e0: 238f 08be 3411 3abd cbfb e73c 6403 ec3d
000001f0: 0fc6 01be fb84 b0bd 44ac e63d 2dd1 2c3d
00000200: 64c6 643c 3a75 e4bd f125 cabe e3c8 13bc
00000210: 751a 353d 4d2c debe a43b 3f3d 9941 ed3c
00000220: ce05 f63d 637b b5bd 7def 65bc aa2c 0f3e
00000230: d6c8 e4bd 2b6c bd3c 74ed 2d3f cc95 393e
00000240: 5b51 1e3f 32e7 943c 46c0 ffbd 53e4 243e
00000250: 7189 303e 9764 393e 0477 57be 1d20 073e
00000260: 322c 203e 5c9d d3bd a653 1c3e 2c38 7bbe
00000270: d4ba 2d3c 1ecc 553d 7926 943d 84c0 283e
00000280: 2776 ea3e 6d26 4cbe 7385 f0be 47d1 f1bc
00000290: 7c66 b73d 3786 5abe f5e1 b7be dc00 a9be
000002a0: 5f76 ef3d f2e4 0fbe 51f7 d33d 9d89 803d
000002b0: 52b4 fabd 6b02 5a3e 037c be3d 1ed4 323e
000002c0: 9ddd cf3c 37b7 633d e648 583e 166a 033d
000002d0: 722c 00be 2d94 1b3e ec71 093f 70df a43e
000002e0: bc2c a4be 2c7c 94be de85 05be 71ae a03e
000002f0: d235 07be 76e6 fdbe 2b24 d83e 285c b93c
00000300: ab35 123d 8b12 a3bd c6a3 6dbe 98f6 d83d
00000310: 316c 67bd f808 95be 0068 683d b16d 17bd
00000320: fa8a a63d d0f6 c2bd ad52 843d 650d ac3d
00000330: 11cf dcbd b2c4 f4bb 57d4 213f 8b4a 823e
00000340: e46a f53e 7609 64be 82e9 f8bd af65 47bd
00000350: 4af8 00bd af33 ff3d b6f6 07be ed66 453d
00000360: 18ef d03d 12a2 8abe a55d c6bd 96c6 1abe
00000370: 28d3 f3bc e51c 58bd 2bcf 9abd 40d5 9c3e
00000380: b6d5 1b3e 82a8 1bbe 0d9b 6fbe 197e 98bd
00000390: 5459 893d 0099 88be ff99 6abe f0ea b3be
000003a0: fb03 233e 2c91 a0bd 2e2b 253e 10c7 a0bc
000003b0: 2a40 483e cff4 b63d b0c3 30bd 4cdb 913e
000003c0: 508b b53a 5ffa 43bd b448 7e3e 2641 033d
000003d0: 8581 cbbd e4f9 153e fa1a ad3e 013a c93d
000003e0: 43bc 12be 1612 48be f052 30be 718c 183e
000003f0: d4e7 02be 105e 0ebe 8e27 063e c170 8f3d

lstm.weight_hh_l1 f4 [256, 64]
-0.023447677 0.087074324 0.034947187 -0.104867965 -0.08019304 0.12215702 -0.015685111 -0.036790982
-0.10694285 -0.08401008 -0.0767111 0.013188779 0.078745365 -0.0069114417 -0.0639648 -0.10609117
0.12389451 0.059941232 0.03512536 0.061803073 -0.097347215 0.09090905 -0.049356252 -0.08074722
-0.1146588 -0.0008326322 0.012554333 -0.05219972 -0.090197146 0.12396057 0.072222665 0.041565195
0.013023779 -0.12320025 -0.050691143 -0.11498074 0.11308554 0.030611172 -0.091931224 0.08151691
-0.05677569 -0.10216476 -0.03645456 -0.11997217 -0.0112717 -0.043909177 0.017904773 -0.12321548
-0.11780508 0.06595738 0.07569894 0.008727729 0.04504627 -0.08116196 -0.0770929 0.031967282
-0.075212464 -0.088456884 0.10916275 0.11630061 0.121307656 -0.05313666 -0.10047263 0.12142487
0.04271254 -0.07021673 -0.01894182 0.062574595 0.05038464 -0.026130617 0.08211383 0.10044354
0.11625342 0.09230238 0.018394038 -0.0077153444 0.03359987 -0.018940762 0.091867715 -0.06557068
-0.063584864 0.08810654 0.09829803 0.0263516 0.112460345 0.09633061 0.0007713437 -0.10645421
0.08796422 -0.019832343 0.054180786 0.049155995 0.03525588 -0.077120245 -0.00015684962 -0.0075025707
-0.12306914 -0.07693182 0.005764097 0.10632764 -0.11195211 -0.11159849 -0.10897796 -0.031716213
-0.011614487 0.051305905 0.08812447 0.023372069 -0.06296909 -0.04245603 -0.036298886 0.071189895
-0.064612016 -0.093850344 0.03630781 0.12310758 0.049542323 0.06950575 -0.11614291 -0.009614721
-0.06388749 -0.025435463 -0.022128433 -0.09825823 0.101483256 -0.031559467 -0.00015972555 -0.11262222
-0.061313123 0.02740398 0.014730483 0.11161275 0.03563328 0.07400024 0.00025737286 0.05925046
0.018694907 0.108097196 -0.11801006 0.10486853 0.07774925 -0.027790502 0.039318785 0.082621455
0.06462334 -0.044202536 -0.046806976 0.020341158 0.038356677 -0.04609263 -0.10787101 -0.04551509
0.049222812 -0.11808637 -0.059941664 -0.068209946 -0.019192338 0.08460234 -0.050457284 0.087890476
-0.057354107 0.08726564 0.078871906 -0.09674823 0.07524057 -0.06585047 0.05128628 -0.08084798
-0.02424854 -0.08249368 0.06811462 -0.06958863 -0.09474023 -0.03950961 -0.08716017 -0.11303231
-0.06617513 -0.076654375 -0.030387774 -0.007392168 0.0028624684 -0.013244569 -0.038782507 -0.10815047
0.07752867 -0.0396799 -0.037780225 -0.08290528 -0.059963092 0.016952604 -0.014365569 0.09834489
0.08565436 -0.11672139 -0.052301645 0.041239917 0.06444658 -0.033705756 -0.016804263 0.008029088
0.041710988 -0.013256863 0.0057863593 0.015497267 -0.026119724 -0.021444246 0.07617962 -0.100802034
0.0026715845 -0.10685547 -0.049635395 0.066852525 -0.04617977 0.025751054 -0.05519691 0.077866495
-0.0291235 -0.02997069 -0.038410634 0.12468459 0.08826864 0.06407702 -0.08001724 -0.066470966
0.105937764 -0.001206696 -0.02717638 0.08204812 -0.060825393 -0.113087595 0.06342879 -0.045391053
-0.08684875 0.022452846 0.0713965 0.062320918 -0.009983093 0.027141914 -0.055136368 -0.042608425
0.008550391 0.102905706 0.088127896 -0.098759055 -0.04276809 -0.07366954 -0.04365611 -0.008177295
0.015852123 -0.07405007 0.0033402443 -0.10885385 0.025083274 -0.009074107 0.0020844787 0.020615771
00000000: 5815 c0bc 0654 b23d c824 0f3d 04c5 d6bd
00000010: 403c a4bd 762d fa3d 107e 80bc 24b2 16bd
00000020: da04 dbbd 7a0d acbd b61a 9dbd c015 583c
00000030: 4045 a13d 6079 e2bb faff 82bd 5446 d9bd
00000040: 68bc fd3d f084 753d 9cdf 0f3d 3825 7d3d
00000050: fa5d c7bd 862e ba3d c829 4abd cc5e a5bd
00000060: 3cd2 eabd 0045 5aba b0b0 4d3c 60cf 55bd
00000070: 48b9 b8bd 0adf fd3d 7ae9 933d 4440 2a3d
00000080: b061 553c 6a50 fcbd 84a1 4fbd 067b ebbd
00000090: 6499 e73d 48c4 fa3c 7046 bcbd 56f2 a63d
000000a0: a08d 68bd c23b d1bd 6051 15bd f8b3 f5bd
000000b0: f0ac 38bc 1cda 33bd 08ad 923c 6658 fcbd
000000c0: ca43 f1bd aa14 873d 0c08 9b3d c0fe 0e3c
000000d0: 7082 383d 3e38 a6bd e2e2 9dbd 20f0 023d
000000e0: fe08 9abd e228 b5bd b890 df3d 042f ee3d
000000f0: 2670 f83d d4a5 59bd 98c4 cdbd 9aad f83d
00000100: 58f3 2e3d cacd 8fbd e02b 9bbc 1c27 803d
00000110: 2060 4e3d e00f d6bc 4c2b a83d 58b5 cd3d
00000120: 4616 ee3d 0809 bd3d 18af 963c 00d1 fcbb
00000130: 04a0 093d a829 9bbc 2425 bc3d ec49 86bd
00000140: c838 82bd 3471 b43d 7a50 c93d 50df d73c
00000150: 9c51 e63d fc48 c53d 0034 4a3a aa04 dabd
00000160: 9626 b43d 7077 a2bc acec 5d3d cc57 493d
00000170: 7868 103d 38f1 9dbd 0078 24b9 20d8 f5bb
00000180: ac0b fcbd 6e8e 9dbd c0e0 bc3b 4ec2 d93d
00000190: 2647 e5bd c08d e4bd d62f dfbd dce8 01bd
000001a0: b04a 3ebc 2426 523d 9a7a b43d c876 bf3c
000001b0: f0f5 80bd 60e6 2dbd 24ae 14bd 02cc 913d
000001c0: 4e53 84bd 9c34 c0bd 80b7 143d d41f fc3d
000001d0: e4ec 4a3d 0859 8e3d 56dc edbd 1087 1dbc
000001e0: 72d7 82bd 085e d0bc b046 b5bc 9c3b c9bd
000001f0: 74d6 cf3d 8044 01bd 007c 27b9 7aa6 e6bd
00000200: 7823 7bbd 507e e03c 2058 713c 3a95 e43d
00000210: 34f4 113d 708d 973d 00f0 8639 9cb0 723d
00000220: 1026 993c 1062 dd3d 42af f1bd 50c5 d63d
00000230: 003b 9f3d e8a8 e3bc bc0c 213d 7035 a93d
00000240: 3e59 843d b80d 35bd acb8 3fbd 80a2 a63c
00000250: e41b 1d3d a0cb 3cbd 7aeb dcbd 086e 3abd
00000260: dc9d 493d 44d7 f1bd 6485 75bd a8b1 8bbd
00000270: 4039 9dbc fe43 ad3d 4cac 4ebd ecff b33d
00000280: 24ec 6abd 54b8 b23d 9887 a13d f023 c6bd
00000290: ba17 9a3d 9cdc 86bd 9011 523d a093 a5bd
000002a0: e0a4 c6bc 72f2 a8bd ae7f 8b3d 7c84 8ebd
000002b0: 2a07 c2bd d4d4 21bd 0881 b2bd 7c7d e7bd
000002c0: d486 87bd f8fc 9cbd c8ef f8bc 003a f2bb
000002d0: 4098 3b3b c0ff 58bc 68da 1ebd fe7d ddbd
000002e0: 5ac7 9e3d 6487 22bd 70bf 1abd 3eca a9bd
000002f0: dc9b 75bd 30e0 8a3c 905d 6bbc 0c69 c93d
00000300: 8e6b af3d a00b efbd 403a 56bd 30eb 283d
00000310: 92fc 833d 0c0f 0abd 18a9 89bc 708c 033c
00000320: 24d9 2a3d 5033 59bc 809b bd3b 40e8 7d3c
00000330: 08f9 d5bc d8ab afbc 1004 9c3d 4c71 cebd
00000340: c015 2f3b 0ad7 dabd 7c4e 4bbd fae9 883d
00000350: 0027 3dbd e0f3 d23c 2816 62bd 7878 9f3d
00000360: 6894 eebc 1885 f5bc 7854 1dbd a25a ff3d
00000370: 30c6 b43d d03a 833d 14e0 a3bd ee21 88bd
00000380: e6f5 d83d 002a 9eba 00a1 debc d808 a83d
00000390: 0c24 79bd 789a e7bd f4e6 813d f8eb 39bd
000003a0: c2dd b1bd 08ef b73c 5438 923d 3844 7f3d
000003b0: 2090 23bc b858 de3c acd6 61bd 2c86 2ebd
000003c0: f016 0c3c 3ac0 d23d 667c b43d 3042 cabd
000003d0: 982d 2fbd 0ee0 96bd c0d0 32bd 10fa 05bc
000003e0: 50dc 813c 90a7 97bd 00e8 5a3b c4ee debd
000003f0: 707b cd3c 90ab 14bc c09b 083b 68e2 a83c

lstm.bias_ih_l1 f4 [256]
0.30012095 0.16066182 0.34205717 0.14246844 0.15859573 0.14233689 0.119931236 0.34364155
0.1963582 0.23461346 0.3520264 0.14710125 0.2649965 0.31038785 0.15501402 0.28448755
0.2829585 0.40317646 0.08099215 0.12313692 0.33618474 0.0865454 0.34756058 0.25760454
0.21617754 0.27812204 0.24170241 0.17020528 0.20326054 0.1945726 0.25089028 0.13830328
0.15123282 0.15843199 0.15377691 0.4401988 0.21317711 0.32074893 0.34433466 0.2516188
0.13462503 0.26433158 0.098712094 0.32904336 0.2233359 0.18495148 0.31121957 0.13345544
0.05731754 0.2239028 0.18867856 0.0880734 0.103499584 0.15529738 0.17163178 0.14961416
0.38564673 0.2049473 0.14481364 0.23820029 0.34430942 0.260251 0.067519836 0.3581528
-0.060603037 0.11004737 0.05298637 -0.03641717 0.1095282 0.08771835 -0.028120816 -0.08392282
-0.10674067 0.09849948 -0.05521074 -0.062383205 0.06866528 -0.07485436 0.12284024 -0.032557443
-0.105449736 0.010081127 0.056430176 0.05010496 0.0009817034 -0.03397122 0.11953241 0.11762114
0.063490406 0.024682939 -0.0430429 -0.08170943 0.07500397 -0.10183488 -0.021721378 -0.020897567
0.045562148 -0.124895334 0.0511301 -0.038466945 0.0037266016 0.004875079 0.09531987 -0.06490408
-0.013345629 0.021486506 -0.0915056 -0.052485496 0.0716269 -0.01630044 -0.016106904 -0.08850576
0.07173127 0.076226816 0.030858561 -0.07000825 -0.015133277 -0.09327483 0.11877972 -0.004354626
0.01465413 0.099678576 -0.033009693 0.07451415 0.04469815 -0.018224 0.078088254 -0.12113848
0.009469018 -0.06822379 0.0016645289 -0.045293707 -0.107746705 -0.059294995 -0.027741633 0.07071695
0.1761419 0.057915546 0.027673583 -0.044723146 -0.0018219406 -0.021986768 -0.19392572 0.08030932
-0.015280933 -0.14284858 -0.014797923 0.14305899 0.084700204 -0.011234637 0.1682156 -0.0077753225
0.06578304 0.02100777 0.0551042 -0.10833588 0.05581022 -0.21976303 -0.14635356 0.05825181
-0.0979015 0.097285144 -0.015234574 -0.19312195 -0.096564576 -0.07369404 0.092241764 0.04136329
0.0915239 0.085877165 -0.06341757 0.13690993 0.0929266 0.17266779 -0.030799598 0.08176886
0.13155901 0.118392386 0.18674688 0.009147484 0.07776631 -0.05393808 0.029061675 -0.23702696
0.0895173 0.10194952 0.008525553 0.042522613 0.13837537 0.04593189 0.01602801 0.109153196
0.22758327 -0.016289068 0.20109524 0.27896821 0.09479798 0.1635126 0.11671317 0.34134313
0.3285832 0.09935914 0.22711147 0.27244326 0.15513565 0.36272627 0.13650984 0.16446273
0.30391958 0.46458453 0.17079113 0.15346198 0.19402644 0.08615214 0.2972961 0.30311185
0.14203244 0.32348585 0.20234443 0.3558694 0.24864063 0.10199892 0.23883884 0.13980995
0.18825574 0.15603481 0.23871745 0.5788469 0.09233959 0.34436712 0.23255895 0.31157902
0.15571961 0.18368448 0.073103786 0.2535584 0.29176316 0.07630339 0.34074202 0.28483382
0.22752036 0.18989772 0.052410476 0.3170991 0.028548934 0.25138795 0.25167182 0.27817643
0.3717727 0.13297248 0.29695123 0.18931735 0.17516398 0.27271125 0.21562067 0.33995283
00000000: 74a9 993e 8884 243e 1e22 af3e 3fe3 113e
00000010: eb66 223e c3c0 113e 829e f53d c9f1 af3e
00000020: 2012 493e 833e 703e ce3c b43e b6a1 163e
00000030: 9fad 873e 28eb 9e3e ffbb 1e3e 5aa8 913e
00000040: f0df 903e 256d ce3e 36df a53d 362f fc3d
00000050: 6820 ac3e b73e b13d 76f3 b13e bee4 833e
00000060: a55d 5d3e 0366 8e3e d680 773e 4b4a 2e3e
00000070: 8823 503e 0a3e 473e b174 803e 609f 0d3e
00000080: c7dc 1a3e ff3b 223e b277 1d3e bd61 e13e
00000090: 1a4b 5a3e 3439 a43e a24c b03e 2ed4 803e
000000a0: 25db 093e 7856 873e 9129 ca3d 5f78 a83e
000000b0: 2bb2 643e ec63 3d3e 2c58 9f3e 8ba8 083e
000000c0: ccc5 6a3d c746 653e f434 413e d45f b43d
000000d0: 97f7 d33d 4706 1f3e 3ec0 2f3e 7434 193e
000000e0: 7d73 c53e b4dd 513e 074a 143e c7ea 733e
000000f0: 5349 b03e 9e3f 853e d747 8a3d ce5f b73e
00000100: e43a 78bd 8460 e13d 3c08 593d 2c2a 15bd
00000110: 5250 e03d aea5 b33d a05d e6bc badf abbd
00000120: da9a dabd 18ba c93d a824 62bd 8885 7fbd
00000130: 62a0 8c3d 3e4d 99bd aa93 fb3d f45a 05bd
00000140: 08f6 d7bd 502b 253c 5423 673d dc3a 4d3d
00000150: 80ac 803a 6825 0bbd 68cd f43d 5ae3 f03d
00000160: 4207 823d e033 ca3c c04d 30bd 4657 a7bd
00000170: ae9b 993d ce8e d0bd 08f1 b1bc 6031 abbc
00000180: 609f 3a3d 20c9 ffbd cc6d 513d 848f 1dbd
00000190: 003a 743b 20bf 9f3b 1037 c33d 6eec 84bd
000001a0: a0a7 5abc 7804 b03c 4a67 bbbd 08fb 56bd
000001b0: 20b1 923d 8088 85bc a0f2 83bc 8242 b5bd
000001c0: d8e7 923d ce1c 9c3d 18cb fc3c 7c60 8fbd
000001d0: 90f1 77bc e006 bfbd c842 f33d 40b1 8ebb
000001e0: e017 703c 4824 cc3d 2c35 07bd e09a 983d
000001f0: 6815 373d 804a 95bc bcec 9f3d 7417 f8bd
00000200: f123 1b3c eab8 8bbd 522c da3a e585 39bd
00000210: 4eaa dcbd 4fdf 72bd 6c42 e3bc 0cd4 903d
00000220: 8b5e 343e da38 6d3d b6b3 e23c 9e2f 37bd
00000230: 2fce eeba 981d b4bc 7794 46be 3679 a43d
00000240: e15c 7abc e646 12be fd72 72bc 0e7e 123e
00000250: 4d77 ad3d 7c11 38bc b640 2c3e 22c8 febb
00000260: 42b9 863d 7d18 ac3c f1b4 613d 34df ddbd
00000270: 4299 643d 8f09 61be b5dd 15be 7399 6e3d
00000280: 9580 c8bd 6f3d c73d 6f9a 79bc c3c1 45be
00000290: a6c3 c5bd e7ec 96bd 40e9 bc3d 8e6c 293d
000002a0: e270 bb3d 5ee0 af3d 12e1 81bd 1e32 0c3e
000002b0: 4d50 be3d d3cf 303e 704f fcbc 6f76 a73d
000002c0: 68b7 063e b577 f23d 933a 3f3e 54df 153c
000002d0: f143 9f3d 2dee 5cbd c012 ee3c 32b7 72be
000002e0: d954 b73d e9ca d03d c3ae 0b3c 312c 2e3d
000002f0: 46b2 0d3e 1423 3c3d 2c4d 833c b68b df3d
00000300: 970b 693e a770 85bc e9eb 4d3e ecd4 8e3e
00000310: 7125 c23d d96f 273e 5107 ef3d 87c4 ae3e
00000320: 0f3c a83e ce7c cb3d e98f 683e af7d 8b3e
00000330: e1db 1e3e 42b7 b93e 3cc9 0b3e eb68 283e
00000340: 599b 9b3e 06de ed3e dfe3 2e3e 2325 1d3e
00000350: deae 463e 8870 b03d 3237 983e 7a31 9b3e
00000360: f470 113e f09f a53e 6133 4f3e 8434 b63e
00000370: a69b 7e3e cfe4 d03d 2b92 743e 572a 0f3e
00000380: 1dc6 403e 97c7 1f3e 5972 743e 4f2f 143f
00000390: 8a1c bd3d e350 b03e ef23 6e3e 4987 9f3e
000003a0: f674 1f3e c917 3c3e 70b7 953d 68d2 813e
000003b0: fb61 953e f444 9c3d bd75 ae3e bdd5 913e
000003c0: 19fb 683e 8c74 423e 5eac 563d d05a a23e
000003d0: 74df e93c ecb5 803e 21db 803e 246d 8e3e
000003e0: fe58 be3e f029 083e fe09 983e 68dc 413e
000003f0: 305e 333e cfa0 8b3e aacb 5c3e 4c0e ae3e

lstm.bias_hh_l1 f4 [256]
0.30210528 0.030809611 0.23471664 0.28036073 0.118353724 0.22270395 0.22151823 0.35617808
0.19055673 0.14694421 0.26927477 0.24027933 0.17544916 0.30126962 0.14858161 0.3526352
0.31092173 0.32951832 0.13961512 0.115178 0.29272658 0.22664113 0.10674473 0.123972826
0.123339444 0.3119447 0.2451053 0.24473776 0.36636594 0.2280716 0.1324084 0.2620146
0.15322469 0.08987524 0.22993718 0.46463653 0.18071984 0.21274099 0.22982277 0.1707792
0.076470084 0.38189754 0.07557545 0.3481458 0.27713126 0.18434744 0.16002849 0.1148789
0.19140822 0.15609181 0.11811096 0.15398197 0.06596125 0.16017403 0.3551749 0.2122136
0.36564448 0.27317962 0.35366693 0.16617312 0.22657605 0.20261467 0.21658313 0.32058406
-0.009386718 -0.12208967 -0.09134039 -0.046147168 0.08313127 -0.079306915 0.12030834 -0.08122724
-0.0579544 -0.115778625 -0.00039708614 -0.0822763 0.07300806 -0.037186265 0.0982769 -0.023818702
-0.06512901 -0.117617905 -0.07495706 -0.028443635 0.029432192 -0.0025568157 -0.013179362 0.0808869
0.04560937 0.064514086 -0.12151544 0.020051435 -0.06034696 -0.0696591 0.119289815 -0.12106316
-0.05248791 -0.112178504 -0.014696956 -0.08744435 0.09883644 -0.0069370866 -0.09954329 0.065839276
-0.049275324 -0.07001701 -0.09995109 -0.053140208 0.08618942 0.0116460025 0.0067525506 -0.03351143
0.014547855 -0.06641117 0.061084867 -0.10810515 0.020576373 0.08733393 -0.042163864 -0.055618256
-0.0846881 -1.53929e-05 -0.0360799 -0.0006710291 -0.059832454 0.052146822 -0.07807927 0.060759485
0.2064539 -0.060979433 -0.017339531 -0.013767002 -0.0982309 0.037348673 -0.09217801 -0.007962409
0.19951065 -0.11728016 -0.121173814 -0.031899698 -0.18798889 0.108969085 -0.1882958 -0.014090517
0.028555743 -0.15924233 -0.09710664 0.1025082 -0.05387472 0.130412 0.10149966 -0.019974533
0.06358756 -0.15507218 0.073528275 -0.042210307 0.1746236 -0.09117697 -0.11492538 -0.007140356
-0.13003461 0.14521787 -0.099403165 0.0030003984 -0.035092406 0.021300336 -0.048689418 0.07031717
0.05845854 -0.003678466 0.014304143 0.28916115 -0.027924847 0.012818245 -0.04793524 -0.06211557
0.10403379 -0.04621606 0.24656208 -0.1731758 0.0120818475 0.06639245 0.09686281 -0.06008578
0.0920999 0.13355576 -0.098171905 -0.010968066 0.13455197 0.0082440935 0.03947964 0.14130169
0.13176022 0.050090954 0.30882782 0.28851372 0.10109046 0.053384416 0.19276674 0.32604012
0.34773323 0.19471987 0.4203106 0.18887949 0.23806533 0.25161767 0.1682365 0.2193105
0.3407636 0.2410753 0.21822195 0.19908509 0.2861704 0.1974019 0.34820023 0.3237733
0.23131615 0.23870316 0.11459785 0.18223105 0.29347628 0.21067874 0.40100703 0.23224129
0.3349361 0.16736396 0.3096446 0.4195315 0.093143925 0.40834248 0.25049248 0.21051958
0.046162967 0.25255263 0.19884743 0.34595883 0.21094432 0.16176292 0.299916 0.111456275
0.1209468 0.33604574 0.08084727 0.17992552 0.2740884 0.361077 0.28357995 0.2292418
0.25487548 0.26298314 0.13870877 0.027129143 0.35097116 0.20658709 0.26068276 0.16798334
00000000: 8bad 9a3e 7064 fc3c 8f59 703e 718b 8f3e
00000010: 7063 f23d 810c 643e add5 623e f95c b63e
00000020: 4e21 433e 8b78 163e 62de 893e c90b 763e
00000030: f2a8 333e 0340 9a3e c725 183e 9a8c b43e
00000040: 2231 9f3e a0b6 a83e 44f7 0e3e 71e2 eb3d
00000050: 42e0 953e 9d14 683e fb9c da3d 77e5 fd3d
00000060: 6499 fc3d 37b7 9f3e e2fc 7a3e 899c 7a3e
00000070: 5194 bb3e 9a8b 693e 1196 073e c726 863e
00000080: efe6 1c3e 8310 b83d a774 6b3e d7e4 ed3e
00000090: 9f0e 393e c6d8 593e a956 6b3e bee0 2e3e
000000a0: 599c 9c3d 1388 c33e 4dc7 9a3d 2b40 b23e
000000b0: 26e4 8d3e 93c5 3c3e 82de 233e a145 eb3d
000000c0: 8400 443e 88d6 1f3e 29e4 f13d 73ad 1d3e
000000d0: b116 873d a904 243e 7cd9 b53e 864e 593e
000000e0: c135 bb3e 33de 8b3e d513 b53e 4929 2a3e
000000f0: 8d03 683e 387a 4f3e f8c7 5d3e 9823 a43e
00000100: c0ca 19bc 260a fabd ac10 bbbd d004 3dbd
00000110: ba40 aa3d aa6b a2bd 3864 f63d 785a a6bd
00000120: 9861 6dbd 581d edbd 0030 d0b9 7a80 a8bd
00000130: 4085 953d a050 18bd 6645 c93d 701f c3bc
00000140: 5c62 85bd a8e1 f0bd 1683 99bd a002 e9bc
00000150: c81b f13c 4090 27bb 40ee 57bc 08a8 a53d
00000160: e4d0 3a3d f61f 843d 16dd f8bd e842 a43c
00000170: 602e 77bd 6ea9 8ebd 384e f43d f6ef f7bd
00000180: 90fd 56bd d8bd e5bd 80cb 70bc 0616 b3bd
00000190: c26a ca3d 8050 e3bb 5add cbbd bed6 863d
000001a0: ecd4 49bd 1465 8fbd 28b3 ccbd 8ca9 59bd
000001b0: 1484 b03d e0ce 3e3c 8044 dd3b 4843 09bd
000001c0: 205a 6e3c 9402 88bd 2034 7a3d 3c66 ddbd
000001d0: c88f a83c 22dc b23d 04b4 2cbd f8cf 63bd
000001e0: f470 adbd 0020 81b7 84c8 13bd 00e8 2fba
000001f0: e012 75bd e897 553d 06e8 9fbd f0de 783d
00000200: a768 533e 92c5 79bd a20b 8ebc fe8e 61bc
00000210: 482d c9bd ecfa 183d d3c7 bcbd c474 02bc
00000220: 854c 4c3e 9530 f0bd fa29 f8bd 42a9 02bd
00000230: 2980 40be 2f2b df3d 9dd0 40be e9db 66bc
00000240: bced e93c 6c10 23be d9df c6bd d2ef d13d
00000250: bdab 5cbd b98a 053e 0edf cf3d a2a1 a3bc
00000260: 323a 823d 3ecb 1ebe fe95 963d b7e4 2cbd
00000270: 87d0 323e feba babd ff5d ebbd a6f9 e9bb
00000280: cb27 05be feb3 143e e393 cbbd 55a2 443b
00000290: 0ebd 0fbd 0b7e ae3c 8e6e 47bd 7302 903d
000002a0: 3972 6f3d 6b12 71bb ed5b 6a3c ee0c 943e
000002b0: a6c2 e4bc 9e03 523c be57 44bd e56c 7ebd
000002c0: ab0f d53d 0d4d 3dbd c57a 7c3e ff54 31be
000002d0: f1f2 453c c4f8 873d 0260 c63d 821c 76bd
000002e0: df9e bc3d d7c2 083e 5a0e c9bd 67b3 33bc
000002f0: fec7 093e 3c12 073c 67b5 213d 64b1 103e
00000300: 27ec 063e 2c2c 4d3d ae1e 9e3e 12b8 933e
00000310: 8408 cf3d 9ea9 5a3d a564 453e bbee a63e
00000320: 170a b23e a564 473e f332 d73e a069 413e
00000330: 66c7 733e 08d4 803e 3046 2c3e ef92 603e
00000340: 9178 ae3e 72dc 763e 9375 5f3e f6dc 4b3e
00000350: ed84 923e b923 4a3e 4d47 b23e 9dc5 a53e
00000360: 24de 6c3e 9a6e 743e 47b2 ea3d c79a 3a3e
00000370: 8642 963e 2bbc 573e cb50 cd3e a9d0 6d3e
00000380: bf7c ab3e 7561 2b3e bd89 9e3e d5cc d63e
00000390: 3ec2 be3d 4412 d13e 8d40 803e 7292 573e
000003a0: 6115 3d3d 944e 813e a99e 4b3e 8421 b13e
000003b0: ca01 583e 2ea5 253e 978e 993e 3043 e43d
000003c0: f5b2 f73d 300e ac3e 4193 a53d 653e 383e
000003d0: 5155 8c3e 16df b83e 6431 913e 5dbe 6a3e
000003e0: 0a7f 823e baa5 863e ac09 0e3e f03d de3c
000003f0: 7eb2 b33e 918b 533e 3678 853e d303 2c3e
